…
puts/yolox_s/best_ckpt.pth', conf=None, devices=None, dist_backend='nccl', dist_url=None, exp_file=None, experiment_name='yolox_s', fp16=False, fuse=False, legacy=False, machine_rank=0, name='yolox-s', nms=None, num_machines=1, opts=[], seed=None, speed=False, test=False, trt=False, tsize=None)
2023-05-12 08:16:16.925 | INFO     | __mp_main__:main:149 - Model Summary: Params: 15.00M, Gflops: 37.96
2023-05-12 08:16:16.930 | INFO     | __mp_main__:main:150 - Model Structure:
YOLOX(
  (backbone): YOLOPAFPN(
    (backbone): CSPDarknet(
      (stem): Focus(
        (conv): BaseConv(
          (conv): Conv2d(12, 32, kernel_size=(3, 3), stride=(1, 1), padding=(1, 1), bias=False)
          (bn): BatchNorm2d(32, eps=0.001, momentum=0.03, affine=True, track_running_stats=True)
          (act): SiLU(inplace=True)
        )
      )
      (dark2): Sequential(
        (0): BaseConv(
          (conv): Conv2d(32, 64, kernel_size=(3, 3), stride=(2, 2), padding=(1, 1), bias=False)
          (bn): BatchNorm2d(64, eps=0.001, momentum=0.03, affine=True, track_running_stats=True)
          (act): SiLU(inplace=True)
        )
        (1): CSPLayer(
          (conv1): BaseConv(
            (conv): Conv2d(64, 32, kernel_size=(1, 1), stride=(1, 1), bias=False)
            (bn): BatchNorm2d(32, eps=0.001, momentum=0.03, affine=True, track_running_stats=True)
            (act): SiLU(inplace=True)
          )
          (conv2): BaseConv(
            (conv): Conv2d(64, 32, kernel_size=(1, 1), stride=(1, 1), bias=False)
            (bn): BatchNorm2d(32, eps=0.001, momentum=0.03, affine=True, track_running_stats=True)
            (act): SiLU(inplace=True)
          )
          (conv3): BaseConv(
            (conv): Conv2d(64, 64, kernel_size=(1, 1), stride=(1, 1), bias=False)
            (bn): BatchNorm2d(64, eps=0.001, momentum=0.03, affine=True, track_running_stats=True)
            (act): SiLU(inplace=True)
          )
          (m): Sequential(
            (0): Bottleneck(
              (conv1): BaseConv(
                (conv): Conv2d(32, 32, kernel_size=(1, 1), stride=(1, 1), bias=False)
                (bn): BatchNorm2d(32, eps=0.001, momentum=0.03, affine=True, track_running_stats=True)
                (act): SiLU(inplace=True)
              )
              (conv2): BaseConv(
                (conv): Conv2d(32, 32, kernel_size=(3, 3), stride=(1, 1), padding=(1, 1), bias=False)
                (bn): BatchNorm2d(32, eps=0.001, momentum=0.03, affine=True, track_running_stats=True)
                (act): SiLU(inplace=True)
              )
            )
          )
        )
      )
      (dark3): Sequential(
        (0): BaseConv(
          (conv): Conv2d(64, 128, kernel_size=(3, 3), stride=(2, 2), padding=(1, 1), bias=False)
          (bn): BatchNorm2d(128, eps=0.001, momentum=0.03, affine=True, track_running_stats=True)
          (act): SiLU(inplace=True)
        )
        (1): CSPLayer(
          (conv1): BaseConv(
            (conv): Conv2d(128, 64, kernel_size=(1, 1), stride=(1, 1), bias=False)
            (bn): BatchNorm2d(64, eps=0.001, momentum=0.03, affine=True, track_running_stats=True)
            (act): SiLU(inplace=True)
          )
          (conv2): BaseConv(
            (conv): Conv2d(128, 64, kernel_size=(1, 1), stride=(1, 1), bias=False)
            (bn): BatchNorm2d(64, eps=0.001, momentum=0.03, affine=True, track_running_stats=True)
            (act): SiLU(inplace=True)
          )
          (conv3): BaseConv(
            (conv): Conv2d(128, 128, kernel_size=(1, 1), stride=(1, 1), bias=False)
            (bn): BatchNorm2d(128, eps=0.001, momentum=0.03, affine=True, track_running_stats=True)
            (act): SiLU(inplace=True)
          )
          (m): Sequential(
            (0): Bottleneck(
              (conv1): BaseConv(
                (conv): Conv2d(64, 64, kernel_size=(1, 1), stride=(1, 1), bias=False)
                (bn): BatchNorm2d(64, eps=0.001, momentum=0.03, affine=True, track_running_stats=True)
                (act): SiLU(inplace=True)
              )
              (conv2): BaseConv(
                (conv): Conv2d(64, 64, kernel_size=(3, 3), stride=(1, 1), padding=(1, 1), bias=False)
                (bn): BatchNorm2d(64, eps=0.001, momentum=0.03, affine=True, track_running_stats=True)
                (act): SiLU(inplace=True)
              )
            )
            (1): Bottleneck(
              (conv1): BaseConv(
                (conv): Conv2d(64, 64, kernel_size=(1, 1), stride=(1, 1), bias=False)
                (bn): BatchNorm2d(64, eps=0.001, momentum=0.03, affine=True, track_running_stats=True)
                (act): SiLU(inplace=True)
              )
              (conv2): BaseConv(
                (conv): Conv2d(64, 64, kernel_size=(3, 3), stride=(1, 1), padding=(1, 1), bias=False)
                (bn): BatchNorm2d(64, eps=0.001, momentum=0.03, affine=True, track_running_stats=True)
                (act): SiLU(inplace=True)
              )
            )
            (2): Bottleneck(
              (conv1): BaseConv(
                (conv): Conv2d(64, 64, kernel_size=(1, 1), stride=(1, 1), bias=False)
                (bn): BatchNorm2d(64, eps=0.001, momentum=0.03, affine=True, track_running_stats=True)
                (act): SiLU(inplace=True)
              )
              (conv2): BaseConv(
                (conv): Conv2d(64, 64, kernel_size=(3, 3), stride=(1, 1), padding=(1, 1), bias=False)
                (bn): BatchNorm2d(64, eps=0.001, momentum=0.03, affine=True, track_running_stats=True)
                (act): SiLU(inplace=True)
              )
            )
          )
        )
      )
      (dark4): Sequential(
        (0): BaseConv(
          (conv): Conv2d(128, 256, kernel_size=(3, 3), stride=(2, 2), padding=(1, 1), bias=False)
          (bn): BatchNorm2d(256, eps=0.001, momentum=0.03, affine=True, track_running_stats=True)
          (act): SiLU(inplace=True)
        )
        (1): CSPLayer(
          (conv1): BaseConv(
            (conv): Conv2d(256, 128, kernel_size=(1, 1), stride=(1, 1), bias=False)
            (bn): BatchNorm2d(128, eps=0.001, momentum=0.03, affine=True, track_running_stats=True)
            (act): SiLU(inplace=True)
          )
          (conv2): BaseConv(
            (conv): Conv2d(256, 128, kernel_size=(1, 1), stride=(1, 1), bias=False)
            (bn): BatchNorm2d(128, eps=0.001, momentum=0.03, affine=True, track_running_stats=True)
            (act): SiLU(inplace=True)
          )
          (conv3): BaseConv(
            (conv): Conv2d(256, 256, kernel_size=(1, 1), stride=(1, 1), bias=False)
            (bn): BatchNorm2d(256, eps=0.001, momentum=0.03, affine=True, track_running_stats=True)
            (act): SiLU(inplace=True)
          )
          (m): Sequential(
            (0): Bottleneck(
              (conv1): BaseConv(
                (conv): Conv2d(128, 128, kernel_size=(1, 1), stride=(1, 1), bias=False)
                (bn): BatchNorm2d(128, eps=0.001, momentum=0.03, affine=True, track_running_stats=True)
                (act): SiLU(inplace=True)
              )
              (conv2): BaseConv(
                (conv): Conv2d(128, 128, kernel_size=(3, 3), stride=(1, 1), padding=(1, 1), bias=False)
                (bn): BatchNorm2d(128, eps=0.001, momentum=0.03, affine=True, track_running_stats=True)
                (act): SiLU(inplace=True)
              )
            )
            (1): Bottleneck(
              (conv1): BaseConv(
                (conv): Conv2d(128, 128, kernel_size=(1, 1), stride=(1, 1), bias=False)
                (bn): BatchNorm2d(128, eps=0.001, momentum=0.03, affine=True, track_running_stats=True)
                (act): SiLU(inplace=True)
              )
              (conv2): BaseConv(
                (conv): Conv2d(128, 128, kernel_size=(3, 3), stride=(1, 1), padding=(1, 1), bias=False)
                (bn): BatchNorm2d(128, eps=0.001, momentum=0.03, affine=True, track_running_stats=True)
                (act): SiLU(inplace=True)
              )
            )
            (2): Bottleneck(
              (conv1): BaseConv(
                (conv): Conv2d(128, 128, kernel_size=(1, 1), stride=(1, 1), bias=False)
                (bn): BatchNorm2d(128, eps=0.001, momentum=0.03, affine=True, track_running_stats=True)
                (act): SiLU(inplace=True)
              )
              (conv2): BaseConv(
                (conv): Conv2d(128, 128, kernel_size=(3, 3), stride=(1, 1), padding=(1, 1), bias=False)
                (bn): BatchNorm2d(128, eps=0.001, momentum=0.03, affine=True, track_running_stats=True)
                (act): SiLU(inplace=True)
              )
            )
          )
        )
      )
      (dark5): Sequential(
        (0): BaseConv(
          (conv): Conv2d(256, 512, kernel_size=(3, 3), stride=(2, 2), padding=(1, 1), bias=False)
          (bn): BatchNorm2d(512, eps=0.001, momentum=0.03, affine=True, track_running_stats=True)
          (act): SiLU(inplace=True)
        )
        (1): SPPBottleneck(
          (conv1): BaseConv(
            (conv): Conv2d(512, 256, kernel_size=(1, 1), stride=(1, 1), bias=False)
            (bn): BatchNorm2d(256, eps=0.001, momentum=0.03, affine=True, track_running_stats=True)
            (act): SiLU(inplace=True)
          )
          (m): ModuleList(
            (0): MaxPool2d(kernel_size=5, stride=1, padding=2, dilation=1, ceil_mode=False)
            (1): MaxPool2d(kernel_size=9, stride=1, padding=4, dilation=1, ceil_mode=False)
            (2): MaxPool2d(kernel_size=13, stride=1, padding=6, dilation=1, ceil_mode=False)
          )
          (conv2): BaseConv(
            (conv): Conv2d(1024, 512, kernel_size=(1, 1), stride=(1, 1), bias=False)
            (bn): BatchNorm2d(512, eps=0.001, momentum=0.03, affine=True, track_running_stats=True)
            (act): SiLU(inplace=True)
          )
        )
        (2): CSPLayer(
          (conv1): BaseConv(
            (conv): Conv2d(512, 256, kernel_size=(1, 1), stride=(1, 1), bias=False)
            (bn): BatchNorm2d(256, eps=0.001, momentum=0.03, affine=True, track_running_stats=True)
            (act): SiLU(inplace=True)
          )
          (conv2): BaseConv(
            (conv): Conv2d(512, 256, kernel_size=(1, 1), stride=(1, 1), bias=False)
            (bn): BatchNorm2d(256, eps=0.001, momentum=0.03, affine=True, track_running_stats=True)
            (act): SiLU(inplace=True)
          )
          (conv3): BaseConv(
            (conv): Conv2d(512, 512, kernel_size=(1, 1), stride=(1, 1), bias=False)
            (bn): BatchNorm2d(512, eps=0.001, momentum=0.03, affine=True, track_running_stats=True)
            (act): SiLU(inplace=True)
          )
          (m): Sequential(
            (0): Bottleneck(
              (conv1): BaseConv(
                (conv): Conv2d(256, 256, kernel_size=(1, 1), stride=(1, 1), bias=False)
                (bn): BatchNorm2d(256, eps=0.001, momentum=0.03, affine=True, track_running_stats=True)
                (act): SiLU(inplace=True)
              )
              (conv2): BaseConv(
                (conv): Conv2d(256, 256, kernel_size=(3, 3), stride=(1, 1), padding=(1, 1), bias=False)
                (bn): BatchNorm2d(256, eps=0.001, momentum=0.03, affine=True, track_running_stats=True)
                (act): SiLU(inplace=True)
              )
            )
          )
        )
      )
    )
    (fpn_conv2): BaseConv(
      (conv): Conv2d(128, 128, kernel_size=(3, 3), stride=(1, 1), padding=(1, 1), bias=False)
      (bn): BatchNorm2d(128, eps=0.001, momentum=0.03, affine=True, track_running_stats=True)
      (act): SiLU(inplace=True)
    )
    (fpn_conv1): BaseConv(
      (conv): Conv2d(256, 256, kernel_size=(3, 3), stride=(1, 1), padding=(1, 1), bias=False)
      (bn): BatchNorm2d(256, eps=0.001, momentum=0.03, affine=True, track_running_stats=True)
      (act): SiLU(inplace=True)
    )
    (fpn_conv0): BaseConv(
      (conv): Conv2d(512, 512, kernel_size=(3, 3), stride=(1, 1), padding=(1, 1), bias=False)
      (bn): BatchNorm2d(512, eps=0.001, momentum=0.03, affine=True, track_running_stats=True)
      (act): SiLU(inplace=True)
    )
    (dilated_encoder_blocks0): Sequential(
      (0): Bottle(
        (conv1): Sequential(
          (0): Conv2d(512, 128, kernel_size=(1, 1), stride=(1, 1))
          (1): BatchNorm2d(128, eps=0.001, momentum=0.03, affine=True, track_running_stats=True)
          (2): SiLU(inplace=True)
        )
        (conv2): Sequential(
          (0): Conv2d(128, 128, kernel_size=(3, 3), stride=(1, 1), padding=(1, 1))
          (1): BatchNorm2d(128, eps=0.001, momentum=0.03, affine=True, track_running_stats=True)
          (2): SiLU(inplace=True)
        )
        (conv3): Sequential(
          (0): Conv2d(128, 512, kernel_size=(1, 1), stride=(1, 1))
          (1): BatchNorm2d(512, eps=0.001, momentum=0.03, affine=True, track_running_stats=True)
          (2): SiLU(inplace=True)
        )
      )
      (1): Bottle(
        (conv1): Sequential(
          (0): Conv2d(512, 128, kernel_size=(1, 1), stride=(1, 1))
          (1): BatchNorm2d(128, eps=0.001, momentum=0.03, affine=True, track_running_stats=True)
          (2): SiLU(inplace=True)
        )
        (conv2): Sequential(
          (0): Conv2d(128, 128, kernel_size=(3, 3), stride=(1, 1), padding=(2, 2), dilation=(2, 2))
          (1): BatchNorm2d(128, eps=0.001, momentum=0.03, affine=True, track_running_stats=True)
          (2): SiLU(inplace=True)
        )
        (conv3): Sequential(
          (0): Conv2d(128, 512, kernel_size=(1, 1), stride=(1, 1))
          (1): BatchNorm2d(512, eps=0.001, momentum=0.03, affine=True, track_running_stats=True)
          (2): SiLU(inplace=True)
        )
      )
      (2): Bottle(
        (conv1): Sequential(
          (0): Conv2d(512, 128, kernel_size=(1, 1), stride=(1, 1))
          (1): BatchNorm2d(128, eps=0.001, momentum=0.03, affine=True, track_running_stats=True)
          (2): SiLU(inplace=True)
        )
        (conv2): Sequential(
          (0): Conv2d(128, 128, kernel_size=(3, 3), stride=(1, 1), padding=(3, 3), dilation=(3, 3))
          (1): BatchNorm2d(128, eps=0.001, momentum=0.03, affine=True, track_running_stats=True)
          (2): SiLU(inplace=True)
        )
        (conv3): Sequential(
          (0): Conv2d(128, 512, kernel_size=(1, 1), stride=(1, 1))
          (1): BatchNorm2d(512, eps=0.001, momentum=0.03, affine=True, track_running_stats=True)
          (2): SiLU(inplace=True)
        )
      )
      (3): Bottle(
        (conv1): Sequential(
          (0): Conv2d(512, 128, kernel_size=(1, 1), stride=(1, 1))
          (1): BatchNorm2d(128, eps=0.001, momentum=0.03, affine=True, track_running_stats=True)
          (2): SiLU(inplace=True)
        )
        (conv2): Sequential(
          (0): Conv2d(128, 128, kernel_size=(3, 3), stride=(1, 1), padding=(4, 4), dilation=(4, 4))
          (1): BatchNorm2d(128, eps=0.001, momentum=0.03, affine=True, track_running_stats=True)
          (2): SiLU(inplace=True)
        )
        (conv3): Sequential(
          (0): Conv2d(128, 512, kernel_size=(1, 1), stride=(1, 1))
          (1): BatchNorm2d(512, eps=0.001, momentum=0.03, affine=True, track_running_stats=True)
          (2): SiLU(inplace=True)
        )
      )
      (4): Bottle(
        (conv1): Sequential(
          (0): Conv2d(512, 128, kernel_size=(1, 1), stride=(1, 1))
          (1): BatchNorm2d(128, eps=0.001, momentum=0.03, affine=True, track_running_stats=True)
          (2): SiLU(inplace=True)
        )
        (conv2): Sequential(
          (0): Conv2d(128, 128, kernel_size=(3, 3), stride=(1, 1), padding=(5, 5), dilation=(5, 5))
          (1): BatchNorm2d(128, eps=0.001, momentum=0.03, affine=True, track_running_stats=True)
          (2): SiLU(inplace=True)
        )
        (conv3): Sequential(
          (0): Conv2d(128, 512, kernel_size=(1, 1), stride=(1, 1))
          (1): BatchNorm2d(512, eps=0.001, momentum=0.03, affine=True, track_running_stats=True)
          (2): SiLU(inplace=True)
        )
      )
      (5): Bottle(
        (conv1): Sequential(
          (0): Conv2d(512, 128, kernel_size=(1, 1), stride=(1, 1))
          (1): BatchNorm2d(128, eps=0.001, momentum=0.03, affine=True, track_running_stats=True)
          (2): SiLU(inplace=True)
        )
        (conv2): Sequential(
          (0): Conv2d(128, 128, kernel_size=(3, 3), stride=(1, 1), padding=(6, 6), dilation=(6, 6))
          (1): BatchNorm2d(128, eps=0.001, momentum=0.03, affine=True, track_running_stats=True)
          (2): SiLU(inplace=True)
        )
        (conv3): Sequential(
          (0): Conv2d(128, 512, kernel_size=(1, 1), stride=(1, 1))
          (1): BatchNorm2d(512, eps=0.001, momentum=0.03, affine=True, track_running_stats=True)
          (2): SiLU(inplace=True)
        )
      )
      (6): Bottle(
        (conv1): Sequential(
          (0): Conv2d(512, 128, kernel_size=(1, 1), stride=(1, 1))
          (1): BatchNorm2d(128, eps=0.001, momentum=0.03, affine=True, track_running_stats=True)
          (2): SiLU(inplace=True)
        )
        (conv2): Sequential(
          (0): Conv2d(128, 128, kernel_size=(3, 3), stride=(1, 1), padding=(7, 7), dilation=(7, 7))
          (1): BatchNorm2d(128, eps=0.001, momentum=0.03, affine=True, track_running_stats=True)
          (2): SiLU(inplace=True)
        )
        (conv3): Sequential(
          (0): Conv2d(128, 512, kernel_size=(1, 1), stride=(1, 1))
          (1): BatchNorm2d(512, eps=0.001, momentum=0.03, affine=True, track_running_stats=True)
          (2): SiLU(inplace=True)
        )
      )
      (7): Bottle(
        (conv1): Sequential(
          (0): Conv2d(512, 128, kernel_size=(1, 1), stride=(1, 1))
          (1): BatchNorm2d(128, eps=0.001, momentum=0.03, affine=True, track_running_stats=True)
          (2): SiLU(inplace=True)
        )
        (conv2): Sequential(
          (0): Conv2d(128, 128, kernel_size=(3, 3), stride=(1, 1), padding=(8, 8), dilation=(8, 8))
          (1): BatchNorm2d(128, eps=0.001, momentum=0.03, affine=True, track_running_stats=True)
          (2): SiLU(inplace=True)
        )
        (conv3): Sequential(
          (0): Conv2d(128, 512, kernel_size=(1, 1), stride=(1, 1))
          (1): BatchNorm2d(512, eps=0.001, momentum=0.03, affine=True, track_running_stats=True)
          (2): SiLU(inplace=True)
        )
      )
    )
    (dilated_encoder_blocks1): Sequential(
      (0): Bottle(
        (conv1): Sequential(
          (0): Conv2d(256, 64, kernel_size=(1, 1), stride=(1, 1))
          (1): BatchNorm2d(64, eps=0.001, momentum=0.03, affine=True, track_running_stats=True)
          (2): SiLU(inplace=True)
        )
        (conv2): Sequential(
          (0): Conv2d(64, 64, kernel_size=(3, 3), stride=(1, 1), padding=(1, 1))
          (1): BatchNorm2d(64, eps=0.001, momentum=0.03, affine=True, track_running_stats=True)
          (2): SiLU(inplace=True)
        )
        (conv3): Sequential(
          (0): Conv2d(64, 256, kernel_size=(1, 1), stride=(1, 1))
          (1): BatchNorm2d(256, eps=0.001, momentum=0.03, affine=True, track_running_stats=True)
          (2): SiLU(inplace=True)
        )
      )
      (1): Bottle(
        (conv1): Sequential(
          (0): Conv2d(256, 64, kernel_size=(1, 1), stride=(1, 1))
          (1): BatchNorm2d(64, eps=0.001, momentum=0.03, affine=True, track_running_stats=True)
          (2): SiLU(inplace=True)
        )
        (conv2): Sequential(
          (0): Conv2d(64, 64, kernel_size=(3, 3), stride=(1, 1), padding=(2, 2), dilation=(2, 2))
          (1): BatchNorm2d(64, eps=0.001, momentum=0.03, affine=True, track_running_stats=True)
          (2): SiLU(inplace=True)
        )
        (conv3): Sequential(
          (0): Conv2d(64, 256, kernel_size=(1, 1), stride=(1, 1))
          (1): BatchNorm2d(256, eps=0.001, momentum=0.03, affine=True, track_running_stats=True)
          (2): SiLU(inplace=True)
        )
      )
      (2): Bottle(
        (conv1): Sequential(
          (0): Conv2d(256, 64, kernel_size=(1, 1), stride=(1, 1))
          (1): BatchNorm2d(64, eps=0.001, momentum=0.03, affine=True, track_running_stats=True)
          (2): SiLU(inplace=True)
        )
        (conv2): Sequential(
          (0): Conv2d(64, 64, kernel_size=(3, 3), stride=(1, 1), padding=(3, 3), dilation=(3, 3))
          (1): BatchNorm2d(64, eps=0.001, momentum=0.03, affine=True, track_running_stats=True)
          (2): SiLU(inplace=True)
        )
        (conv3): Sequential(
          (0): Conv2d(64, 256, kernel_size=(1, 1), stride=(1, 1))
          (1): BatchNorm2d(256, eps=0.001, momentum=0.03, affine=True, track_running_stats=True)
          (2): SiLU(inplace=True)
        )
      )
      (3): Bottle(
        (conv1): Sequential(
          (0): Conv2d(256, 64, kernel_size=(1, 1), stride=(1, 1))
          (1): BatchNorm2d(64, eps=0.001, momentum=0.03, affine=True, track_running_stats=True)
          (2): SiLU(inplace=True)
        )
        (conv2): Sequential(
          (0): Conv2d(64, 64, kernel_size=(3, 3), stride=(1, 1), padding=(4, 4), dilation=(4, 4))
          (1): BatchNorm2d(64, eps=0.001, momentum=0.03, affine=True, track_running_stats=True)
          (2): SiLU(inplace=True)
        )
        (conv3): Sequential(
          (0): Conv2d(64, 256, kernel_size=(1, 1), stride=(1, 1))
          (1): BatchNorm2d(256, eps=0.001, momentum=0.03, affine=True, track_running_stats=True)
          (2): SiLU(inplace=True)
        )
      )
      (4): Bottle(
        (conv1): Sequential(
          (0): Conv2d(256, 64, kernel_size=(1, 1), stride=(1, 1))
          (1): BatchNorm2d(64, eps=0.001, momentum=0.03, affine=True, track_running_stats=True)
          (2): SiLU(inplace=True)
        )
        (conv2): Sequential(
          (0): Conv2d(64, 64, kernel_size=(3, 3), stride=(1, 1), padding=(5, 5), dilation=(5, 5))
          (1): BatchNorm2d(64, eps=0.001, momentum=0.03, affine=True, track_running_stats=True)
          (2): SiLU(inplace=True)
        )
        (conv3): Sequential(
          (0): Conv2d(64, 256, kernel_size=(1, 1), stride=(1, 1))
          (1): BatchNorm2d(256, eps=0.001, momentum=0.03, affine=True, track_running_stats=True)
          (2): SiLU(inplace=True)
        )
      )
      (5): Bottle(
        (conv1): Sequential(
          (0): Conv2d(256, 64, kernel_size=(1, 1), stride=(1, 1))
          (1): BatchNorm2d(64, eps=0.001, momentum=0.03, affine=True, track_running_stats=True)
          (2): SiLU(inplace=True)
        )
        (conv2): Sequential(
          (0): Conv2d(64, 64, kernel_size=(3, 3), stride=(1, 1), padding=(6, 6), dilation=(6, 6))
          (1): BatchNorm2d(64, eps=0.001, momentum=0.03, affine=True, track_running_stats=True)
          (2): SiLU(inplace=True)
        )
        (conv3): Sequential(
          (0): Conv2d(64, 256, kernel_size=(1, 1), stride=(1, 1))
          (1): BatchNorm2d(256, eps=0.001, momentum=0.03, affine=True, track_running_stats=True)
          (2): SiLU(inplace=True)
        )
      )
      (6): Bottle(
        (conv1): Sequential(
          (0): Conv2d(256, 64, kernel_size=(1, 1), stride=(1, 1))
          (1): BatchNorm2d(64, eps=0.001, momentum=0.03, affine=True, track_running_stats=True)
          (2): SiLU(inplace=True)
        )
        (conv2): Sequential(
          (0): Conv2d(64, 64, kernel_size=(3, 3), stride=(1, 1), padding=(7, 7), dilation=(7, 7))
          (1): BatchNorm2d(64, eps=0.001, momentum=0.03, affine=True, track_running_stats=True)
          (2): SiLU(inplace=True)
        )
        (conv3): Sequential(
          (0): Conv2d(64, 256, kernel_size=(1, 1), stride=(1, 1))
          (1): BatchNorm2d(256, eps=0.001, momentum=0.03, affine=True, track_running_stats=True)
          (2): SiLU(inplace=True)
        )
      )
      (7): Bottle(
        (conv1): Sequential(
          (0): Conv2d(256, 64, kernel_size=(1, 1), stride=(1, 1))
          (1): BatchNorm2d(64, eps=0.001, momentum=0.03, affine=True, track_running_stats=True)
          (2): SiLU(inplace=True)
        )
        (conv2): Sequential(
          (0): Conv2d(64, 64, kernel_size=(3, 3), stride=(1, 1), padding=(8, 8), dilation=(8, 8))
          (1): BatchNorm2d(64, eps=0.001, momentum=0.03, affine=True, track_running_stats=True)
          (2): SiLU(inplace=True)
        )
        (conv3): Sequential(
          (0): Conv2d(64, 256, kernel_size=(1, 1), stride=(1, 1))
          (1): BatchNorm2d(256, eps=0.001, momentum=0.03, affine=True, track_running_stats=True)
          (2): SiLU(inplace=True)
        )
      )
    )
    (dilated_encoder_blocks2): Sequential(
      (0): Bottle(
        (conv1): Sequential(
          (0): Conv2d(128, 32, kernel_size=(1, 1), stride=(1, 1))
          (1): BatchNorm2d(32, eps=0.001, momentum=0.03, affine=True, track_running_stats=True)
          (2): SiLU(inplace=True)
        )
        (conv2): Sequential(
          (0): Conv2d(32, 32, kernel_size=(3, 3), stride=(1, 1), padding=(1, 1))
          (1): BatchNorm2d(32, eps=0.001, momentum=0.03, affine=True, track_running_stats=True)
          (2): SiLU(inplace=True)
        )
        (conv3): Sequential(
          (0): Conv2d(32, 128, kernel_size=(1, 1), stride=(1, 1))
          (1): BatchNorm2d(128, eps=0.001, momentum=0.03, affine=True, track_running_stats=True)
          (2): SiLU(inplace=True)
        )
      )
      (1): Bottle(
        (conv1): Sequential(
          (0): Conv2d(128, 32, kernel_size=(1, 1), stride=(1, 1))
          (1): BatchNorm2d(32, eps=0.001, momentum=0.03, affine=True, track_running_stats=True)
          (2): SiLU(inplace=True)
        )
        (conv2): Sequential(
          (0): Conv2d(32, 32, kernel_size=(3, 3), stride=(1, 1), padding=(2, 2), dilation=(2, 2))
          (1): BatchNorm2d(32, eps=0.001, momentum=0.03, affine=True, track_running_stats=True)
          (2): SiLU(inplace=True)
        )
        (conv3): Sequential(
          (0): Conv2d(32, 128, kernel_size=(1, 1), stride=(1, 1))
          (1): BatchNorm2d(128, eps=0.001, momentum=0.03, affine=True, track_running_stats=True)
          (2): SiLU(inplace=True)
        )
      )
      (2): Bottle(
        (conv1): Sequential(
          (0): Conv2d(128, 32, kernel_size=(1, 1), stride=(1, 1))
          (1): BatchNorm2d(32, eps=0.001, momentum=0.03, affine=True, track_running_stats=True)
          (2): SiLU(inplace=True)
        )
        (conv2): Sequential(
          (0): Conv2d(32, 32, kernel_size=(3, 3), stride=(1, 1), padding=(3, 3), dilation=(3, 3))
          (1): BatchNorm2d(32, eps=0.001, momentum=0.03, affine=True, track_running_stats=True)
          (2): SiLU(inplace=True)
        )
        (conv3): Sequential(
          (0): Conv2d(32, 128, kernel_size=(1, 1), stride=(1, 1))
          (1): BatchNorm2d(128, eps=0.001, momentum=0.03, affine=True, track_running_stats=True)
          (2): SiLU(inplace=True)
        )
      )
      (3): Bottle(
        (conv1): Sequential(
          (0): Conv2d(128, 32, kernel_size=(1, 1), stride=(1, 1))
          (1): BatchNorm2d(32, eps=0.001, momentum=0.03, affine=True, track_running_stats=True)
          (2): SiLU(inplace=True)
        )
        (conv2): Sequential(
          (0): Conv2d(32, 32, kernel_size=(3, 3), stride=(1, 1), padding=(4, 4), dilation=(4, 4))
          (1): BatchNorm2d(32, eps=0.001, momentum=0.03, affine=True, track_running_stats=True)
          (2): SiLU(inplace=True)
        )
        (conv3): Sequential(
          (0): Conv2d(32, 128, kernel_size=(1, 1), stride=(1, 1))
          (1): BatchNorm2d(128, eps=0.001, momentum=0.03, affine=True, track_running_stats=True)
          (2): SiLU(inplace=True)
        )
      )
      (4): Bottle(
        (conv1): Sequential(
          (0): Conv2d(128, 32, kernel_size=(1, 1), stride=(1, 1))
          (1): BatchNorm2d(32, eps=0.001, momentum=0.03, affine=True, track_running_stats=True)
          (2): SiLU(inplace=True)
        )
        (conv2): Sequential(
          (0): Conv2d(32, 32, kernel_size=(3, 3), stride=(1, 1), padding=(5, 5), dilation=(5, 5))
          (1): BatchNorm2d(32, eps=0.001, momentum=0.03, affine=True, track_running_stats=True)
          (2): SiLU(inplace=True)
        )
        (conv3): Sequential(
          (0): Conv2d(32, 128, kernel_size=(1, 1), stride=(1, 1))
          (1): BatchNorm2d(128, eps=0.001, momentum=0.03, affine=True, track_running_stats=True)
          (2): SiLU(inplace=True)
        )
      )
      (5): Bottle(
        (conv1): Sequential(
          (0): Conv2d(128, 32, kernel_size=(1, 1), stride=(1, 1))
          (1): BatchNorm2d(32, eps=0.001, momentum=0.03, affine=True, track_running_stats=True)
          (2): SiLU(inplace=True)
        )
        (conv2): Sequential(
          (0): Conv2d(32, 32, kernel_size=(3, 3), stride=(1, 1), padding=(6, 6), dilation=(6, 6))
          (1): BatchNorm2d(32, eps=0.001, momentum=0.03, affine=True, track_running_stats=True)
          (2): SiLU(inplace=True)
        )
        (conv3): Sequential(
          (0): Conv2d(32, 128, kernel_size=(1, 1), stride=(1, 1))
          (1): BatchNorm2d(128, eps=0.001, momentum=0.03, affine=True, track_running_stats=True)
          (2): SiLU(inplace=True)
        )
      )
      (6): Bottle(
        (conv1): Sequential(
          (0): Conv2d(128, 32, kernel_size=(1, 1), stride=(1, 1))
          (1): BatchNorm2d(32, eps=0.001, momentum=0.03, affine=True, track_running_stats=True)
          (2): SiLU(inplace=True)
        )
        (conv2): Sequential(
          (0): Conv2d(32, 32, kernel_size=(3, 3), stride=(1, 1), padding=(7, 7), dilation=(7, 7))
          (1): BatchNorm2d(32, eps=0.001, momentum=0.03, affine=True, track_running_stats=True)
          (2): SiLU(inplace=True)
        )
        (conv3): Sequential(
          (0): Conv2d(32, 128, kernel_size=(1, 1), stride=(1, 1))
          (1): BatchNorm2d(128, eps=0.001, momentum=0.03, affine=True, track_running_stats=True)
          (2): SiLU(inplace=True)
        )
      )
      (7): Bottle(
        (conv1): Sequential(
          (0): Conv2d(128, 32, kernel_size=(1, 1), stride=(1, 1))
          (1): BatchNorm2d(32, eps=0.001, momentum=0.03, affine=True, track_running_stats=True)
          (2): SiLU(inplace=True)
        )
        (conv2): Sequential(
          (0): Conv2d(32, 32, kernel_size=(3, 3), stride=(1, 1), padding=(8, 8), dilation=(8, 8))
          (1): BatchNorm2d(32, eps=0.001, momentum=0.03, affine=True, track_running_stats=True)
          (2): SiLU(inplace=True)
        )
        (conv3): Sequential(
          (0): Conv2d(32, 128, kernel_size=(1, 1), stride=(1, 1))
          (1): BatchNorm2d(128, eps=0.001, momentum=0.03, affine=True, track_running_stats=True)
          (2): SiLU(inplace=True)
        )
      )
    )
    (upsample): Upsample(scale_factor=2.0, mode=nearest)
    (lateral_conv0): BaseConv(
      (conv): Conv2d(512, 256, kernel_size=(1, 1), stride=(1, 1), bias=False)
      (bn): BatchNorm2d(256, eps=0.001, momentum=0.03, affine=True, track_running_stats=True)
      (act): SiLU(inplace=True)
    )
    (C3_p4): CSPLayer(
      (conv1): BaseConv(
        (conv): Conv2d(512, 128, kernel_size=(1, 1), stride=(1, 1), bias=False)
        (bn): BatchNorm2d(128, eps=0.001, momentum=0.03, affine=True, track_running_stats=True)
        (act): SiLU(inplace=True)
      )
      (conv2): BaseConv(
        (conv): Conv2d(512, 128, kernel_size=(1, 1), stride=(1, 1), bias=False)
        (bn): BatchNorm2d(128, eps=0.001, momentum=0.03, affine=True, track_running_stats=True)
        (act): SiLU(inplace=True)
      )
      (conv3): BaseConv(
        (conv): Conv2d(256, 256, kernel_size=(1, 1), stride=(1, 1), bias=False)
        (bn): BatchNorm2d(256, eps=0.001, momentum=0.03, affine=True, track_running_stats=True)
        (act): SiLU(inplace=True)
      )
      (m): Sequential(
        (0): Bottleneck(
          (conv1): BaseConv(
            (conv): Conv2d(128, 128, kernel_size=(1, 1), stride=(1, 1), bias=False)
            (bn): BatchNorm2d(128, eps=0.001, momentum=0.03, affine=True, track_running_stats=True)
            (act): SiLU(inplace=True)
          )
          (conv2): BaseConv(
            (conv): Conv2d(128, 128, kernel_size=(3, 3), stride=(1, 1), padding=(1, 1), bias=False)
            (bn): BatchNorm2d(128, eps=0.001, momentum=0.03, affine=True, track_running_stats=True)
            (act): SiLU(inplace=True)
          )
        )
      )
    )
    (reduce_conv1): BaseConv(
      (conv): Conv2d(256, 128, kernel_size=(1, 1), stride=(1, 1), bias=False)
      (bn): BatchNorm2d(128, eps=0.001, momentum=0.03, affine=True, track_running_stats=True)
      (act): SiLU(inplace=True)
    )
    (C3_p3): CSPLayer(
      (conv1): BaseConv(
        (conv): Conv2d(256, 64, kernel_size=(1, 1), stride=(1, 1), bias=False)
        (bn): BatchNorm2d(64, eps=0.001, momentum=0.03, affine=True, track_running_stats=True)
        (act): SiLU(inplace=True)
      )
      (conv2): BaseConv(
        (conv): Conv2d(256, 64, kernel_size=(1, 1), stride=(1, 1), bias=False)
        (bn): BatchNorm2d(64, eps=0.001, momentum=0.03, affine=True, track_running_stats=True)
        (act): SiLU(inplace=True)
      )
      (conv3): BaseConv(
        (conv): Conv2d(128, 128, kernel_size=(1, 1), stride=(1, 1), bias=False)
        (bn): BatchNorm2d(128, eps=0.001, momentum=0.03, affine=True, track_running_stats=True)
        (act): SiLU(inplace=True)
      )
      (m): Sequential(
        (0): Bottleneck(
          (conv1): BaseConv(
            (conv): Conv2d(64, 64, kernel_size=(1, 1), stride=(1, 1), bias=False)
            (bn): BatchNorm2d(64, eps=0.001, momentum=0.03, affine=True, track_running_stats=True)
            (act): SiLU(inplace=True)
          )
          (conv2): BaseConv(
            (conv): Conv2d(64, 64, kernel_size=(3, 3), stride=(1, 1), padding=(1, 1), bias=False)
            (bn): BatchNorm2d(64, eps=0.001, momentum=0.03, affine=True, track_running_stats=True)
            (act): SiLU(inplace=True)
          )
        )
      )
    )
    (bu_conv2): BaseConv(
      (conv): Conv2d(128, 128, kernel_size=(3, 3), stride=(2, 2), padding=(1, 1), bias=False)
      (bn): BatchNorm2d(128, eps=0.001, momentum=0.03, affine=True, track_running_stats=True)
      (act): SiLU(inplace=True)
    )
    (C3_n3): CSPLayer(
      (conv1): BaseConv(
        (conv): Conv2d(256, 128, kernel_size=(1, 1), stride=(1, 1), bias=False)
        (bn): BatchNorm2d(128, eps=0.001, momentum=0.03, affine=True, track_running_stats=True)
        (act): SiLU(inplace=True)
      )
      (conv2): BaseConv(
        (conv): Conv2d(256, 128, kernel_size=(1, 1), stride=(1, 1), bias=False)
        (bn): BatchNorm2d(128, eps=0.001, momentum=0.03, affine=True, track_running_stats=True)
        (act): SiLU(inplace=True)
      )
      (conv3): BaseConv(
        (conv): Conv2d(256, 256, kernel_size=(1, 1), stride=(1, 1), bias=False)
        (bn): BatchNorm2d(256, eps=0.001, momentum=0.03, affine=True, track_running_stats=True)
        (act): SiLU(inplace=True)
      )
      (m): Sequential(
        (0): Bottleneck(
          (conv1): BaseConv(
            (conv): Conv2d(128, 128, kernel_size=(1, 1), stride=(1, 1), bias=False)
            (bn): BatchNorm2d(128, eps=0.001, momentum=0.03, affine=True, track_running_stats=True)
            (act): SiLU(inplace=True)
          )
          (conv2): BaseConv(
            (conv): Conv2d(128, 128, kernel_size=(3, 3), stride=(1, 1), padding=(1, 1), bias=False)
            (bn): BatchNorm2d(128, eps=0.001, momentum=0.03, affine=True, track_running_stats=True)
            (act): SiLU(inplace=True)
          )
        )
      )
    )
    (bu_conv1): BaseConv(
      (conv): Conv2d(256, 256, kernel_size=(3, 3), stride=(2, 2), padding=(1, 1), bias=False)
      (bn): BatchNorm2d(256, eps=0.001, momentum=0.03, affine=True, track_running_stats=True)
      (act): SiLU(inplace=True)
    )
    (C3_n4): CSPLayer(
      (conv1): BaseConv(
        (conv): Conv2d(512, 256, kernel_size=(1, 1), stride=(1, 1), bias=False)
        (bn): BatchNorm2d(256, eps=0.001, momentum=0.03, affine=True, track_running_stats=True)
        (act): SiLU(inplace=True)
      )
      (conv2): BaseConv(
        (conv): Conv2d(512, 256, kernel_size=(1, 1), stride=(1, 1), bias=False)
        (bn): BatchNorm2d(256, eps=0.001, momentum=0.03, affine=True, track_running_stats=True)
        (act): SiLU(inplace=True)
      )
      (conv3): BaseConv(
        (conv): Conv2d(512, 512, kernel_size=(1, 1), stride=(1, 1), bias=False)
        (bn): BatchNorm2d(512, eps=0.001, momentum=0.03, affine=True, track_running_stats=True)
        (act): SiLU(inplace=True)
      )
      (m): Sequential(
        (0): Bottleneck(
          (conv1): BaseConv(
            (conv): Conv2d(256, 256, kernel_size=(1, 1), stride=(1, 1), bias=False)
            (bn): BatchNorm2d(256, eps=0.001, momentum=0.03, affine=True, track_running_stats=True)
            (act): SiLU(inplace=True)
          )
          (conv2): BaseConv(
            (conv): Conv2d(256, 256, kernel_size=(3, 3), stride=(1, 1), padding=(1, 1), bias=False)
            (bn): BatchNorm2d(256, eps=0.001, momentum=0.03, affine=True, track_running_stats=True)
            (act): SiLU(inplace=True)
          )
        )
      )
    )
  )
  (head): YOLOXHead(
    (cls_convs): ModuleList(
      (0): Sequential(
        (0): BaseConv(
          (conv): Conv2d(128, 128, kernel_size=(3, 3), stride=(1, 1), padding=(1, 1), bias=False)
          (bn): BatchNorm2d(128, eps=0.001, momentum=0.03, affine=True, track_running_stats=True)
          (act): SiLU(inplace=True)
        )
        (1): BaseConv(
          (conv): Conv2d(128, 128, kernel_size=(3, 3), stride=(1, 1), padding=(1, 1), bias=False)
          (bn): BatchNorm2d(128, eps=0.001, momentum=0.03, affine=True, track_running_stats=True)
          (act): SiLU(inplace=True)
        )
      )
      (1): Sequential(
        (0): BaseConv(
          (conv): Conv2d(128, 128, kernel_size=(3, 3), stride=(1, 1), padding=(1, 1), bias=False)
          (bn): BatchNorm2d(128, eps=0.001, momentum=0.03, affine=True, track_running_stats=True)
          (act): SiLU(inplace=True)
        )
        (1): BaseConv(
          (conv): Conv2d(128, 128, kernel_size=(3, 3), stride=(1, 1), padding=(1, 1), bias=False)
          (bn): BatchNorm2d(128, eps=0.001, momentum=0.03, affine=True, track_running_stats=True)
          (act): SiLU(inplace=True)
        )
      )
      (2): Sequential(
        (0): BaseConv(
          (conv): Conv2d(128, 128, kernel_size=(3, 3), stride=(1, 1), padding=(1, 1), bias=False)
          (bn): BatchNorm2d(128, eps=0.001, momentum=0.03, affine=True, track_running_stats=True)
          (act): SiLU(inplace=True)
        )
        (1): BaseConv(
          (conv): Conv2d(128, 128, kernel_size=(3, 3), stride=(1, 1), padding=(1, 1), bias=False)
          (bn): BatchNorm2d(128, eps=0.001, momentum=0.03, affine=True, track_running_stats=True)
          (act): SiLU(inplace=True)
        )
      )
    )
    (reg_convs): ModuleList(
      (0): Sequential(
        (0): BaseConv(
          (conv): Conv2d(128, 128, kernel_size=(3, 3), stride=(1, 1), padding=(1, 1), bias=False)
          (bn): BatchNorm2d(128, eps=0.001, momentum=0.03, affine=True, track_running_stats=True)
          (act): SiLU(inplace=True)
        )
        (1): BaseConv(
          (conv): Conv2d(128, 128, kernel_size=(3, 3), stride=(1, 1), padding=(1, 1), bias=False)
          (bn): BatchNorm2d(128, eps=0.001, momentum=0.03, affine=True, track_running_stats=True)
          (act): SiLU(inplace=True)
        )
      )
      (1): Sequential(
        (0): BaseConv(
          (conv): Conv2d(128, 128, kernel_size=(3, 3), stride=(1, 1), padding=(1, 1), bias=False)
          (bn): BatchNorm2d(128, eps=0.001, momentum=0.03, affine=True, track_running_stats=True)
          (act): SiLU(inplace=True)
        )
        (1): BaseConv(
          (conv): Conv2d(128, 128, kernel_size=(3, 3), stride=(1, 1), padding=(1, 1), bias=False)
          (bn): BatchNorm2d(128, eps=0.001, momentum=0.03, affine=True, track_running_stats=True)
          (act): SiLU(inplace=True)
        )
      )
      (2): Sequential(
        (0): BaseConv(
          (conv): Conv2d(128, 128, kernel_size=(3, 3), stride=(1, 1), padding=(1, 1), bias=False)
          (bn): BatchNorm2d(128, eps=0.001, momentum=0.03, affine=True, track_running_stats=True)
          (act): SiLU(inplace=True)
        )
        (1): BaseConv(
          (conv): Conv2d(128, 128, kernel_size=(3, 3), stride=(1, 1), padding=(1, 1), bias=False)
          (bn): BatchNorm2d(128, eps=0.001, momentum=0.03, affine=True, track_running_stats=True)
          (act): SiLU(inplace=True)
        )
      )
    )
    (cls_preds): ModuleList(
      (0): Conv2d(128, 20, kernel_size=(1, 1), stride=(1, 1))
      (1): Conv2d(128, 20, kernel_size=(1, 1), stride=(1, 1))
      (2): Conv2d(128, 20, kernel_size=(1, 1), stride=(1, 1))
    )
    (reg_preds): ModuleList(
      (0): Conv2d(128, 4, kernel_size=(1, 1), stride=(1, 1))
      (1): Conv2d(128, 4, kernel_size=(1, 1), stride=(1, 1))
      (2): Conv2d(128, 4, kernel_size=(1, 1), stride=(1, 1))
    )
    (obj_preds): ModuleList(
      (0): Conv2d(128, 1, kernel_size=(1, 1), stride=(1, 1))
      (1): Conv2d(128, 1, kernel_size=(1, 1), stride=(1, 1))
      (2): Conv2d(128, 1, kernel_size=(1, 1), stride=(1, 1))
    )
    (stems): ModuleList(
      (0): BaseConv(
        (conv): Conv2d(128, 128, kernel_size=(1, 1), stride=(1, 1), bias=False)
        (bn): BatchNorm2d(128, eps=0.001, momentum=0.03, affine=True, track_running_stats=True)
        (act): SiLU(inplace=True)
      )
      (1): BaseConv(
        (conv): Conv2d(256, 128, kernel_size=(1, 1), stride=(1, 1), bias=False)
        (bn): BatchNorm2d(128, eps=0.001, momentum=0.03, affine=True, track_running_stats=True)
        (act): SiLU(inplace=True)
      )
      (2): BaseConv(
        (conv): Conv2d(512, 128, kernel_size=(1, 1), stride=(1, 1), bias=False)
        (bn): BatchNorm2d(128, eps=0.001, momentum=0.03, affine=True, track_running_stats=True)
        (act): SiLU(inplace=True)
      )
    )
    (l1_loss): L1Loss()
    (bcewithlog_loss): BCEWithLogitsLoss()
    (iou_loss): IOUloss()
  )
)
2023-05-12 08:16:16.931 | INFO     | yolox.data.datasets.coco:__init__:63 - loading annotations into memory...
2023-05-12 08:16:16.971 | INFO     | yolox.data.datasets.coco:__init__:63 - Done (t=0.04s)
…
